models/best_nn_200.pth (torch, 294728 bytes, 6 tensors)

fc1.weight f4 [128, 500]
0	0xc0169b07	-2.353212
1	0xbee11e1e	-0.4396829
2	0x3d191d7b	0.03738163
3	0x3ed4a17e	0.4152946
4	0x3e6d38ab	0.23166148
5	0xbecbf71b	-0.39836964
6	0xbecaec75	-0.39633527
7	0xbf251b59	-0.64494854
8	0xbf559cfe	-0.83442676
9	0xbe298ef4	-0.16558439
10	0x3d47554b	0.048665326
11	0x3f93e69a	1.1554749
12	0x3e3e73c4	0.18598849
13	0x3e464140	0.19360828
14	0xbf0ab21d	-0.5417803
15	0x3ead20e4	0.33814156
16	0x3fbb3783	1.4626316
17	0x3f1c6309	0.61088616
18	0xbee32e11	-0.44371083
19	0x3f26b2ba	0.65116465
20	0x3fa3c02c	1.2793021
21	0x3ef38a57	0.47566482
22	0xbdaca405	-0.08429722
23	0xbf9d442a	-1.2286427
24	0x3e56a4bd	0.2096128
25	0xbf25264b	-0.64511555
26	0xbfb3c0ce	-1.4043214
27	0xc0264f89	-2.5986044
28	0x3efc7d09	0.49314144
29	0xbd0082f1	-0.031374875
30	0x3f31fcfa	0.69526637
31	0x3f5eacb6	0.86982286
32	0x3fb1a52b	1.387853
33	0xbe7bb1ba	-0.24579516
34	0xbe8f7f8c	-0.28026998
35	0x3f9778c9	1.1833736
36	0x3fa0dee2	1.2568018
37	0x3b581fb0	0.0032977872
38	0x3f2046de	0.62608135
39	0xbf88e226	-1.0694015
40	0xbfbfb06c	-1.4975715
41	0xbf804304	-1.0020452
42	0xbed2de1d	-0.41185084
43	0xbf2af2b5	-0.6677659
44	0xbfd6d91e	-1.6785009
45	0xbf70100d	-0.9377449
46	0xbcfd12d5	-0.030892769
47	0xbf008a40	-0.5021095
48	0xbf42276d	-0.7584141
49	0xbdd61210	-0.10452664
50	0x3f7e2357	0.99272674
51	0xbe47d997	-0.19516598
52	0xbf3ca069	-0.73682266
53	0xbf417d3e	-0.7558173
54	0xbf80f044	-1.0073323
55	0xbf822486	-1.0167396
56	0xbe665eed	-0.22497149
57	0xc00789bb	-2.1177814
58	0x4063b7a0	3.5580826
59	0xbf530f66	-0.8244537
60	0x3fcf839f	1.6212043
61	0x3e57ea48	0.21085465
62	0x3ff45f2e	1.9091547
63	0xbf9bbe7b	-1.2167505
64	0x3f8872e7	1.0660065
65	0xbeaeda3f	-0.34150884
66	0x3f52ee0c	0.8239448
67	0xbe39e353	-0.18153124
68	0x3f3f8baf	0.74822515
69	0xbf3feede	-0.7497386
70	0xbf166efe	-0.5876311
71	0xbfbaabb0	-1.4583645
72	0xbf728e0c	-0.94747996
73	0xbf09edf5	-0.5387872
74	0xbe96a8fe	-0.29425806
75	0x3f89d2d9	1.0767471
76	0x403179c9	2.7730582
77	0xc014d359	-2.3253996
78	0xbdf2dd80	-0.11858654
79	0xc02fba32	-2.7457395
80	0x3ff5eb39	1.9212409
81	0xc006abc6	-2.1042342
82	0xbd004061	-0.031311397
83	0xbef94803	-0.48687753
84	0x3f804e4c	1.0023894
85	0xbfd1682e	-1.6359918
86	0xbf08ac0d	-0.5338753
87	0xbf8dd15f	-1.107952
88	0xbf3f2bb2	-0.7467605
89	0xbf78929b	-0.970987
90	0xbf1cc37c	-0.61235785
91	0xbde1ce90	-0.11025727
92	0xbfe3fa4b	-1.7810758
93	0x405b64b9	3.4280226
94	0xbdf3d2cb	-0.1190544
95	0xbe536b03	-0.2064629
96	0xbf93582f	-1.1511286
97	0x40184e0d	2.3797638
98	0x3f2ed212	0.6828929
99	0x3ed10e44	0.40831196
100	0xbdfec190	-0.12439263
101	0x3fba2788	1.4543314
102	0x3eb3a695	0.3508803
103	0xbd8e6139	-0.069521375
104	0x3ea93f41	0.3305607
105	0x3e227943	0.1586657
106	0xbf17c3b6	-0.59283006
107	0x3f92d2e2	1.1470606
108	0x3fea7ddd	1.831966
109	0x3f9b77ec	1.2145972
110	0xbfc4073a	-1.5314705
111	0x3ef4ff41	0.47850993
112	0x3f71aa26	0.9440025
113	0x3f0ce2b7	0.5503344
114	0xbf35da85	-0.7103656
115	0x3f20aa95	0.6276029
116	0x3cf9c8b0	0.030491203
117	0xbedc933e	-0.43081087
118	0xbe8519bb	-0.25996193
119	0x3f4f9d34	0.8109925
120	0x3f85fa38	1.0466986
121	0x3f114d2c	0.5675838
122	0xbe69f3ba	-0.2284688
123	0xbfbf2ef8	-1.4936209
124	0x3e99d07d	0.30041876
125	0x3ea1fde1	0.31639007
126	0xbf5b95d2	-0.8577548
127	0xc00d9334	-2.2121096
128	0xbc8a0d7f	-0.016852139
129	0xbf82b5dd	-1.021175
130	0xbf4dcb31	-0.8038817
131	0xbf1568de	-0.5836314
132	0xbec861a2	-0.39136988
133	0xbf2d3c4e	-0.6767014
134	0x3f533c32	0.82513726
135	0xbfd934fd	-1.6969296
136	0xbeccc0df	-0.399909
137	0x3e8eaffb	0.27868637
138	0x3dca374e	0.0987383
139	0xc02beeaf	-2.686443
140	0xbeb43939	-0.35199907
141	0xbf682d7c	-0.90694404
142	0xbf3ddbe0	-0.7416363
143	0xbf47ec7f	-0.7809524
144	0xbee809d6	-0.45320004
145	0x3f811cb5	1.0086886
146	0xbe541cba	-0.20714083
147	0x3f9c9228	1.2232103
148	0xbef30292	-0.47462898
149	0x3e2f9735	0.17147525
150	0xbe8dd681	-0.27702716
151	0x3efa432a	0.48879367
152	0x3e082ea2	0.13299039
153	0x3e30d92a	0.17270342
154	0x3f2923f3	0.6607048
155	0x3f964b6c	1.1741767
156	0xbf2c8e8a	-0.67405
157	0xbe7a5ccf	-0.24449466
158	0x3fea96e0	1.8327293
159	0x4028b06d	2.6357682
160	0xbe68dfb9	-0.22741593
161	0x3e1e6e56	0.15471777
162	0xbcbe221c	-0.023209624
163	0x3f297022	0.66186726
164	0x3f89b184	1.0757298
165	0xbfc1239e	-1.5088995
166	0x3f953f52	1.1659949
167	0x3f21957f	0.6311874
168	0x4034e951	2.8267405
169	0x3eab8e9f	0.3350725
170	0x3f890cbe	1.0707014
171	0xbf8fc51d	-1.1232029
172	0x3d30d09d	0.0431677
173	0x3f892b8d	1.0716416
174	0x3ecbeccf	0.39829108
175	0xbef96049	-0.48706272
176	0x40107d9e	2.257667
177	0x402c07aa	2.6879678
178	0x3f70581e	0.93884456
179	0xbf82eddb	-1.0228838
180	0x3ed8eb9c	0.42367256
181	0x40029b32	2.0407224
182	0xbfcd33c9	-1.6031429
183	0xbbcebe19	-0.0063092825
184	0xbf09c6fe	-0.53819263
185	0x3d040a97	0.03223666
186	0xbee3ecda	-0.4451664
187	0xbee02f9c	-0.43786323
188	0xbd8bace9	-0.06820089
189	0x3ff416c8	1.9069452
190	0xbf951363	-1.1646541
191	0x3f58413a	0.8447453
192	0xbf683eb2	-0.90720665
193	0x4011708e	2.2724948
194	0x4036c0a4	2.8555079
195	0xc0567513	-3.3508956
196	0x3fcd1756	1.6022747
197	0xbfafc2f6	-1.3731372
198	0x3ddf67d5	0.10908476
199	0x4067b209	3.6202414
200	0x3fa3783b	1.2771066
201	0xbfa2ee8b	-1.2729048
202	0x3f0ba3f6	0.5454706
203	0x40996fd0	4.794899
204	0x3fd5a8a1	1.6692086
205	0x3fc1e5b0	1.514822
206	0x3f977e9e	1.1835515
207	0xbf0f11af	-0.5588636
208	0xbfcac6bc	-1.5841899
209	0xbfaad28c	-1.3345504
210	0xbe12360c	-0.1427843
211	0x3f0e0520	0.5547657
212	0xbf0062ab	-0.50150555
213	0xbe9f0e89	-0.31065777
214	0x3e07dddb	0.13268225
215	0x3e5d8014	0.21630889
216	0x3d90e24f	0.07074415
217	0xbdafc0ea	-0.08581717
218	0x3ed3b65d	0.4135007
219	0xbd8c9349	-0.0686403
220	0xbe5a740f	-0.21333335
221	0xbd5a4964	-0.053292647
222	0xbe941ed0	-0.28929758
223	0x3e2c0fd6	0.16802916
224	0x3f2f5e90	0.68503666
225	0x3ef8809d	0.48535624
226	0xbead0d58	-0.33799243
227	0x3eda6379	0.42654017
228	0x3ec872ec	0.39150178
229	0xbccb9a94	-0.024853982
230	0x3eaa72c5	0.33290687
231	0x3f4a76b4	0.79087377
232	0x3f99fc44	1.203011
233	0x3f10a2f9	0.56498677
234	0x3fafd26c	1.3736091
235	0xbee11c45	-0.4396688
236	0xbef91a18	-0.4865272
237	0xbec9be47	-0.39402983
238	0xbefb042a	-0.49026614
239	0x3eee5d3e	0.46555513
240	0x3eed2070	0.4631381
241	0x3e71faa1	0.23630764
242	0xbf05876c	-0.5215976
243	0x3f821a1d	1.0164219
244	0x3eb00d5c	0.34385192
245	0xbe1357f1	-0.14389016
246	0xbf246ee4	-0.64231706
247	0xc0033524	-2.0501184
248	0xbf56c9c1	-0.839016
249	0x3f9411f3	1.1567978
250	0xbec7055e	-0.38871282
251	0xbe6a43f4	-0.22877485
252	0xbcdb5a40	-0.026776433
253	0x3d1300a7	0.035889294
254	0xbdedb3a5	-0.1160653
255	0xbd0f191e	-0.034936063

fc1.bias f4 [128]
0	0xbcecf89a	-0.028927136
1	0xbc987a50	-0.01861301
2	0xbae3adee	-0.0017370561
3	0x3d829f07	0.06377988
4	0xbf295a9b	-0.6615388
5	0xbe45d32b	-0.19318835
6	0xbd3dc462	-0.046329863
7	0xbbb2e6fe	-0.0054596653
8	0xbb808490	-0.0039220527
9	0xbc59e6bc	-0.01329964
10	0xbd5c7811	-0.05382544
11	0xbc1beff0	-0.009517655
12	0xbcd31cf9	-0.025770651
13	0xbcb64fca	-0.022254843
14	0xbe56d0b9	-0.20978059
15	0xbc1d9ba4	-0.009619627
16	0xbe840dab	-0.25791678
17	0xbf0a92d3	-0.54130286
18	0xbc5f2c40	-0.01362139
19	0x3d34e73d	0.04416584
20	0xbf1d94c0	-0.615551
21	0xbd167cf7	-0.03674027
22	0xbcb65c36	-0.022260766
23	0xbce237b0	-0.027614444
24	0x3de4fda1	0.111811884
25	0xbc8b942d	-0.01703843
26	0xbbdb2053	-0.006687203
27	0xbb17e4e6	-0.0023177206
28	0xbd00e9dc	-0.031473026
29	0xbbba783e	-0.0056906035
30	0x3dadc378	0.08484548
31	0xbc4f6c71	-0.012660132
32	0xbf049efd	-0.51805097
33	0x3db191fa	0.08670421
34	0xbcb60f7e	-0.022224184
35	0xbcb6f5b0	-0.02233395
36	0xbb289202	-0.0025721793
37	0xbc948921	-0.018131794
38	0xbf276f22	-0.6540395
39	0xbb9be835	-0.004757906
40	0xbb236570	-0.0024932288
41	0xbb8924db	-0.0041853017
42	0xbd530a24	-0.051523343
43	0xbc97bde9	-0.018523173
44	0xbc9940c2	-0.018707637
45	0xbead1d69	-0.338115
46	0xbcb13d20	-0.021635592
47	0xbba1e948	-0.0049411394
48	0xbfcbe56a	-1.5929387
49	0xbc2675a6	-0.0101598855
50	0xbd69920d	-0.05702405
51	0xbd065666	-0.03279724
52	0xbd1ab020	-0.037765622
53	0xbefe7d02	-0.49704748
54	0x3deb47d6	0.11488311
55	0xbb8d7a43	-0.0043175532
56	0xbd5515ca	-0.052022733
57	0x3df5d9f0	0.12004459
58	0xbc660fc8	-0.0140418485
59	0xbb115082	-0.002217323
60	0xbbb17737	-0.005415823
61	0xbca257d7	-0.019817276
62	0xbba14c50	-0.0049224272
63	0xbd336b58	-0.043803543
64	0xbbaeb35f	-0.0053314413
65	0xbd110304	-0.035403267
66	0xbbfc4bb4	-0.007699454
67	0xbb8ad460	-0.004236743
68	0xbb5095e3	-0.003182762
69	0xbc46bca5	-0.012129937
70	0xbbac2295	-0.005253146
71	0xbd8637ea	-0.065536335
72	0x3deef6ae	0.11668144
73	0xbec1b41f	-0.37832734
74	0xbccb8cd9	-0.024847435
75	0xbe995df3	-0.2995449
76	0xbe3c543b	-0.18391506
77	0xbace0184	-0.0015717004
78	0xbf31a865	-0.69397575
79	0xbd23daea	-0.040003695
80	0xbcf535fa	-0.029932965
81	0xbcbe4f1b	-0.02323108
82	0xbf4e5073	-0.80591506
83	0xbc111692	-0.008855479
84	0xbcbe61b1	-0.023239942
85	0xbc8ed409	-0.01743509
86	0xbbcd8310	-0.0062717274
87	0xbb664b17	-0.0035139972
88	0xbc2c04e0	-0.010499209
89	0xbd16a64e	-0.036779694
90	0xbd939bd5	-0.07207457
91	0xbcb883cf	-0.022523789
92	0xbca88595	-0.02057151
93	0xbd4d60d4	-0.05014117
94	0xbd015c0d	-0.031581927
95	0xbbff2e04	-0.007787468
96	0xbee1be2a	-0.44090396
97	0xbd39309a	-0.045212366
98	0xbd185e94	-0.03719957
99	0xbb83476f	-0.0040063183
100	0x3db0e79a	0.086379245
101	0xbb31f132	-0.002715182
102	0xbcf9c03b	-0.03048717
103	0x3de20696	0.110364124
104	0xbe48f114	-0.19623214
105	0xbcc11aee	-0.023572411
106	0xbc4e9f34	-0.012611199
107	0xbb11d980	-0.0022254884
108	0xbb35f545	-0.00277646
109	0x3dd88cf8	0.10573763
110	0xbd170d5a	-0.036877967
111	0xbd126f12	-0.035750456
112	0xbc9f207e	-0.019424673
113	0xbd0b6656	-0.034033142
114	0x3dc21f78	0.094786584
115	0xbbab4289	-0.0052264375
116	0xbd27437e	-0.04083585
117	0xbe223364	-0.15839916
118	0xbf054325	-0.5205558
119	0xbd2ee5fb	-0.042699795
120	0xbb173758	-0.002307376
121	0xbd8ba439	-0.06818432
122	0xbd402950	-0.0469144
123	0xbb3b5000	-0.002858162
124	0xbeaf613b	-0.34253868
125	0xbb7a5e2f	-0.003820311
126	0xbb2289c2	-0.0024801348
127	0xbd7e0faf	-0.062026676

fc2.weight f4 [64, 128]
0	0xc031c946	-2.7779098
1	0x3e2e4a73	0.17020588
2	0x3d558e68	0.052137762
3	0xbe51d4b1	-0.20491292
4	0xbda33a80	-0.07970142
5	0xc036d149	-2.8565238
6	0xbcc9ea0e	-0.024647739
7	0x3cb83ee3	0.022490924
8	0x3d93f7af	0.07224976
9	0xbeedd3a1	-0.46450523
10	0x3d9cf4af	0.07663857
11	0x3e075ec6	0.13219747
12	0x3bcc6137	0.006237175
13	0xbac21195	-0.0014806265
14	0xbf806dfe	-1.0033567
15	0x3e8a05c4	0.26957524
16	0xc07762be	-3.8654017
17	0x3e43de23	0.19127707
18	0xbefff94e	-0.49994892
19	0xbd64ae91	-0.055830542
20	0x3d8d7518	0.069070995
21	0x3d5a96ba	0.0533664
22	0xbc6f359c	-0.014600184
23	0x3d50f82a	0.051017918
24	0xbe6b6e71	-0.22991349
25	0xc047bc78	-3.1208782
26	0x3d689203	0.056779873
27	0x3ab9e051	0.0014181231
28	0x3cb4d273	0.022073006
29	0x3cfc0cea	0.030767877
30	0xbea562e4	-0.3230201
31	0x3d92dba4	0.071707994
32	0x3d453031	0.048141662
33	0xbe8e0a8c	-0.27742422
34	0xbd8230d3	-0.06356969
35	0x3d56f74a	0.052481927
36	0x3dc5cb2a	0.09657891
37	0x3d8a3847	0.06749015
38	0x3e015d74	0.12633306
39	0x3e532637	0.20620047
40	0xbca73a76	-0.020413619
41	0xbd0a4815	-0.03376015
42	0xbcc4ecd4	-0.02403871
43	0xbcc517b1	-0.024059149
44	0xbf3dce57	-0.74142975
45	0xbe9a8a12	-0.30183464
46	0xbd82501d	-0.06362937
47	0x3e1610ba	0.14654818
48	0x3d5303c6	0.05151727
49	0x3e61db2c	0.22056264
50	0xbcbd7786	-0.023128282
51	0xbc78650c	-0.01516081
52	0xbc1214ca	-0.008916089
53	0x3f0214ca	0.5081297
54	0xbe82ec53	-0.25570926
55	0xbd52ed43	-0.0514958
56	0x3bc7ffe6	0.0061035035
57	0xbe45dcb6	-0.19322476
58	0x3e76f6d7	0.241176
59	0xbe539288	-0.20661366
60	0x3d8ff174	0.070284754
61	0xbf278f9d	-0.6545351
62	0x3d890d1d	0.06691954
63	0xbd77624a	-0.06039647
64	0x3dabeb53	0.08394494
65	0xbd2623cb	-0.04056148
66	0xbeb76460	-0.35818768
67	0x3cde499b	0.027134707
68	0xbe51f357	-0.20502983
69	0x3ef59a72	0.47969395
70	0x3d776eb1	0.060408298
71	0x3db019c4	0.085986644
72	0xbeae2444	-0.34012043
73	0xc044cd27	-3.0750215
74	0x3d7d0a81	0.061777595
75	0x3ddbc68d	0.1073123
76	0x3df041ad	0.11731277
77	0x3dbdc196	0.09265439
78	0xbf9b979e	-1.2155645
79	0x3c72bdde	0.014815776
80	0xbd4cb8c9	-0.049980912
81	0xbca15e1b	-0.019698193
82	0xbe97ef31	-0.29674676
83	0x3db56635	0.08857385
84	0xbda49710	-0.080366254
85	0x3da8ffe0	0.08251929
86	0xbd3d3926	-0.04619708
87	0xbb8a6b9c	-0.004224254
88	0xbdabd6c5	-0.083905734
89	0xbc52d7ab	-0.012868802
90	0xbd4eba50	-0.05047065
91	0xbe976531	-0.2956939
92	0xbd8b4210	-0.0679971
93	0x3d5d60e5	0.054047484
94	0xbd873898	-0.06602591
95	0xbd9f8a4d	-0.07790051
96	0xbd97df54	-0.07415643
97	0xbf71603e	-0.9428748
98	0xbc2f7a32	-0.010710286
99	0x3e648c0a	0.22319046
100	0xbe9e5331	-0.30922845
101	0x3decdc21	0.11565424
102	0xbf6f6d86	-0.93526495
103	0xbe89e019	-0.26928785
104	0xbfa8a775	-1.3176104
105	0xbfe3bdb3	-1.7792267
106	0xbe5d2b2b	-0.21598499
107	0x3dc25338	0.09488529
108	0xbe368e1b	-0.17827646
109	0xbea2dd24	-0.31809342
110	0xbcde9ff9	-0.02717589
111	0x3d6b2fef	0.05741876
112	0x3e874d99	0.2642639
113	0xbd166f9f	-0.036727544
114	0xbeb3cade	-0.35115713
115	0xbec769c9	-0.38947895
116	0xbd834f5f	-0.06411623
117	0xbe0ee82a	-0.13955751
118	0x3dde16eb	0.10844215
119	0x3bb60fe2	0.0055560926
120	0x3d33fbe9	0.043941412
121	0x3cade1be	0.021225806
122	0x3d165cfb	0.036709767
123	0xbe1316d1	-0.14364173
124	0xbe13a4f2	-0.1441839
125	0x3d0bc86f	0.034126695
126	0x3ddfce94	0.109280735
127	0x3c65e6cb	0.014032076
128	0xbe9f7697	-0.31145164
129	0xc03cbcf5	-2.949033
130	0xbe292c73	-0.16520862
131	0xbff5a2e2	-1.9190333
132	0x3c8282df	0.015931545
133	0x3e4cfbf4	0.20017987
134	0xbc8626c2	-0.016375903
135	0x3abd95e3	0.0014464225
136	0xbd7a21d7	-0.06106743
137	0xbe3be71e	-0.18349883
138	0x3d654c68	0.05598107
139	0xbefed813	-0.49774227
140	0x3da0bd93	0.078486584
141	0xbd97b7a5	-0.07408074
142	0x3d9e7b74	0.077383906
143	0xbe8fed0d	-0.28110543
144	0x3ee62783	0.4495202
145	0x3ce16761	0.027515115
146	0xbee1c304	-0.44094098
147	0x3d926451	0.0714804
148	0xbd53b846	-0.05168941
149	0x3d385d63	0.045010936
150	0x3daec32d	0.085333206
151	0xbba03103	-0.004888655
152	0xc0015aad	-2.0211594
153	0xbe579655	-0.21053441
154	0xbf129824	-0.572634
155	0xbf32ce2f	-0.6984586
156	0xbd0fa7ba	-0.035072066
157	0x3c889696	0.016673367
158	0xbff06040	-1.8779373
159	0xbd8989d1	-0.067157395
160	0xbf4253ab	-0.7590892
161	0xbf9e201f	-1.2353553
162	0x3d98b629	0.07456619
163	0xbd86eb3f	-0.065878384
164	0xbe0b8d3a	-0.13628092
165	0x3d6d0018	0.057861418
166	0x3dc14b67	0.0943821
167	0xbe8d000c	-0.27539098
168	0xbc2a9ce8	-0.010413386
169	0xbf4d77d4	-0.8026097
170	0xbd5a35fa	-0.053274132
171	0x3d40fd7c	0.04711674
172	0x3e435b26	0.19077739
173	0xbf5a47d9	-0.8526588
174	0x3d8870cf	0.066621415
175	0xbede1cc6	-0.43381327
176	0xbecd7217	-0.40126106
177	0xbd61b150	-0.05510074
178	0x3db87e53	0.090084694
179	0x3d6cdcc8	0.05782774
180	0x3db0ef36	0.08639376
181	0xc0915637	-4.5417743
182	0xbfe6b201	-1.8023072
183	0xbf2fe2ea	-0.6870562
184	0xbd95f15c	-0.07321426
185	0xbfc3d7a3	-1.5300182
186	0x3d4bc044	0.049743906
187	0xbfe03e47	-1.7519006
188	0xbcaa33a5	-0.02077658
189	0x3dcf8ead	0.10134635
190	0xbe6fd0b6	-0.2341946
191	0xbcbe5cac	-0.023237549
192	0x3ded67fe	0.115921006
193	0xbc0487eb	-0.008089046
194	0x3d8d7e69	0.069088764
195	0xbdad08fe	-0.08448981
196	0xbfb3366d	-1.4000984
197	0xbf21363a	-0.6297337
198	0xbedbf486	-0.42959994
199	0xbe0b69fe	-0.13614652
200	0xbfd0bf32	-1.6308348
201	0xbdbf49fc	-0.09340283
202	0xbbc362e0	-0.0059627146
203	0x3e1a1431	0.15046765
204	0xbfaad325	-1.3345686
205	0xbea03c0c	-0.31295812
206	0xbf91499e	-1.1350591
207	0x3d0f9fd9	0.035064552
208	0xbce3e099	-0.027817057
209	0x3db42c5f	0.087975256
210	0xbf192c14	-0.5983288
211	0x3d819dc4	0.063289195
212	0xbdac8c71	-0.084252246
213	0xbd85da5b	-0.065357886
214	0x3d53640d	0.051609088
215	0xbf8911b0	-1.0708523
216	0xbda7c759	-0.081923194
217	0x3d30e860	0.04319036
218	0xbdb78381	-0.08960629
219	0x3d8ba94b	0.068193994
220	0x3bb29d4d	0.0054508806
221	0xbdc752b3	-0.097325705
222	0xbd7e8da7	-0.06214681
223	0xbf0b0896	-0.54309976
224	0x3e463951	0.19357802
225	0x3dba5145	0.09097532
226	0x3d8b55cf	0.06803476
227	0xbe831a9e	-0.25606245
228	0xc0108b41	-2.2584994
229	0xbe694fed	-0.22784396
230	0xbf479896	-0.779672
231	0xc00a95fe	-2.1654048
232	0x3ea16316	0.3152091
233	0x3def9129	0.11697609
234	0xbf34f43e	-0.70685184
235	0xbef1ae6e	-0.47203392
236	0xbf7a766f	-0.97836965
237	0xbfc5c0e6	-1.5449493
238	0x3d98613d	0.07440422
239	0x3d8c8474	0.06861201
240	0x3e8871ee	0.2664942
241	0x3d9fe595	0.07807461
242	0xc00a363d	-2.1595604
243	0xbfcbddbb	-1.5927042
244	0x3d2dc4da	0.04242406
245	0xbe788f25	-0.24273355
246	0xbf126f64	-0.5720122
247	0x3d47b6d6	0.04875835
248	0xbdbce843	-0.09223988
249	0xbe2337f3	-0.15939312
250	0xbc0f65da	-0.008752311
251	0x3e1c5a97	0.15268932
252	0xbf6a38c5	-0.91492873
253	0xbe70ffcb	-0.23535077
254	0xbe4fb69d	-0.20284505
255	0xbece70bd	-0.40320387

fc2.bias f4 [64]
0	0x3f1d71e7	0.61501926
1	0x3eeb8d87	0.46006414
2	0xbf2743be	-0.6533774
3	0x3f51433f	0.81743234
4	0x3ed509e2	0.41609102
5	0x3f696e3f	0.9118385
6	0x3f7ff01d	0.9997576
7	0x3f4af574	0.7928078
8	0x3f46f1fe	0.77713
9	0xbf2bb5fc	-0.6707456
10	0x3e09bf6d	0.1345193
11	0xbfacbc56	-1.3494976
12	0x3f853cd6	1.0409191
13	0x3f586545	0.84529525
14	0x3e8c2c2f	0.2737746
15	0x3fc1082d	1.508062
16	0x3ed1c92d	0.40973797
17	0x3eeef17b	0.4666861
18	0x3d883364	0.06650427
19	0xbdf11de0	-0.11773276
20	0x3eaf3ddf	0.3422689
21	0x3eb6c204	0.35694897
22	0x3e928841	0.28619578
23	0xbeb90ad3	-0.3614107
24	0xbddd4a88	-0.10805231
25	0x3e90904c	0.2823509
26	0x3f1f8aa5	0.6232093
27	0x3f4d7ae3	0.80265635
28	0xbe8a1658	-0.26970172
29	0x3f032656	0.5123037
30	0x3e8f2588	0.27958322
31	0x3ed5f12f	0.4178557
32	0x3f01620b	0.50540227
33	0x3f796df9	0.9743343
34	0x3f8b27f9	1.0871574
35	0x3e056d7c	0.13030046
36	0xbdfbd876	-0.12297146
37	0x3ec8c4c8	0.39212632
38	0x3f911b8a	1.1336529
39	0x3df8e5d8	0.12153214
40	0x3d4136b3	0.047171306
41	0x3f4f500c	0.80981517
42	0xbe76219e	-0.24036261
43	0x3facb634	1.3493104
44	0x3e2c94ee	0.16853687
45	0xbfff2e67	-1.9936036
46	0xbdfa3da8	-0.12218791
47	0xbe8a2413	-0.26980647
48	0x3eb3bf8e	0.35107082
49	0x3edea0b6	0.43481988
50	0x3c604779	0.013688915
51	0x3e348121	0.17627384
52	0x3f39458e	0.7237176
53	0x3f0c92bd	0.54911405
54	0x3eb8b121	0.3607264
55	0x3f3f5075	0.7473214
56	0x3e3b54f0	0.1829412
57	0x3f16b309	0.58866936
58	0x3f6bc0f6	0.9209131
59	0x3e535ea9	0.20641579
60	0xbc098429	-0.008393326
61	0x3f47697a	0.7789532
62	0xbe165628	-0.14681304
63	0xbf5f06d1	-0.87119776

fc3.weight f4 [9, 64]
0	0xbda1a9f3	-0.07893743
1	0xbe78a293	-0.24280767
2	0xbd34e9bd	-0.044168223
3	0xbe08c245	-0.13355358
4	0xbe1bf13b	-0.15228741
5	0xbe16ac2b	-0.14714114
6	0xbdf98c31	-0.121849425
7	0x3ce3a2ef	0.027787654
8	0xbda59b8a	-0.08086307
9	0xbecce9d6	-0.40022153
10	0xbefc92b1	-0.49330667
11	0xbef34463	-0.47513112
12	0xbde70323	-0.11279895
13	0xbe1ae41e	-0.15126082
14	0xbe84ff7e	-0.25976175
15	0xbe3f5476	-0.18684563
16	0xbd9387a8	-0.07203609
17	0xbe07000d	-0.13183613
18	0xbf3cac14	-0.7370007
19	0xbee7b58d	-0.452557
20	0xbe2d2d19	-0.16911735
21	0xbf0c6e9a	-0.54856265
22	0xbe506838	-0.20352256
23	0xbdf394e4	-0.11893633
24	0xbf416082	-0.75537884
25	0xbdc267c4	-0.09492448
26	0xbe472031	-0.19445874
27	0xbd93051c	-0.07178709
28	0xbe90449c	-0.28177345
29	0xbdf7006c	-0.12060627
30	0xbe7edbe4	-0.24888569
31	0xbead8a13	-0.33894405
32	0xbdc91e68	-0.09820253
33	0xbd2ca17f	-0.042146202
34	0xbd3015c3	-0.042989504
35	0xbe219f47	-0.15783416
36	0xbf4a67e2	-0.7906476
37	0xbcebdbaa	-0.028791267
38	0x3ceb2d69	0.028708177
39	0xbc909273	-0.017647957
40	0xbe80d894	-0.25165236
41	0xbe4815fa	-0.19539633
42	0xbe9873ee	-0.29775947
43	0xbeae9659	-0.3409908
44	0xbdc11444	-0.094276935
45	0xbf5916e0	-0.8480053
46	0xbebea0dd	-0.37232104
47	0xbf15d7b4	-0.5853226
48	0xbf470210	-0.7773752
49	0xbe72be70	-0.23705459
50	0xbf2012f2	-0.6252891
51	0xbe86af38	-0.26305556
52	0xbea8779d	-0.32903758
53	0xbe247ad2	-0.16062477
54	0xbe6b2105	-0.22961815
55	0xbdcaa200	-0.0989418
56	0xbe02b2f4	-0.12763578
57	0xbe6d6958	-0.23184717
58	0xbd9dffd3	-0.0771481
59	0xbec36a37	-0.38166973
60	0xbf1c88c0	-0.61146164
61	0xbd52605b	-0.051361423
62	0xbed8584b	-0.42254862
63	0xbe0967d2	-0.1341851
64	0xbdd3cc17	-0.103416614
65	0xbe5ad8eb	-0.2137181
66	0xbefbbb8a	-0.49166518
67	0xbe779f6c	-0.24181908
68	0xbdf22b99	-0.11824722
69	0xbef6c4c1	-0.48196986
70	0xbecd4902	-0.40094763
71	0xbec70490	-0.38870668
72	0xbd355142	-0.044266947
73	0xbd8fc501	-0.070199974
74	0xbc3e4ccf	-0.011614992
75	0xbdd1543b	-0.10221144
76	0xbe1aafec	-0.15106171
77	0xbe19c052	-0.1501477
78	0xbe8d3076	-0.27576035
79	0xbec781d9	-0.38966253
80	0xbd844acc	-0.06459579
81	0xbe4c785f	-0.19967793
82	0xbe9cd51d	-0.30631343
83	0xbec6f85b	-0.38861355
84	0xbf441283	-0.76590747
85	0xbe36dedd	-0.17858453
86	0xbe23fd18	-0.16014516
87	0xbef4228d	-0.4768261
88	0xbf18aad5	-0.5963567
89	0xbd996a05	-0.07490925
90	0xbe4b12a8	-0.19831336
91	0xbd875e46	-0.06609778
92	0xbd3b8b4e	-0.04578715
93	0xbdc19c90	-0.0945369
94	0xbea54758	-0.32280993
95	0xbde91ef0	-0.11382854
96	0xbe2e51c3	-0.17023377
97	0xbd4a41a0	-0.04937899
98	0xbe5d836e	-0.21632168
99	0xbea7fdb0	-0.32810736
100	0xbdd9ee9b	-0.106412135
101	0xbc3ca617	-0.011514208
102	0xbc3e2641	-0.0116058
103	0xbc2dccb6	-0.010607889
104	0xbeb04681	-0.3442879
105	0xbec12df1	-0.37730363
106	0xbf1df815	-0.6170667
107	0xbea61295	-0.32436052
108	0xbd7bda5f	-0.06148755
109	0xbec871ca	-0.39149314
110	0xbef02c5e	-0.4690885
111	0xbe30deb5	-0.17272456
112	0xbf28e669	-0.6597658
113	0xbf15e0cb	-0.5854613
114	0xbe1131dc	-0.14179176
115	0xbe1f041a	-0.15528908
116	0xbde8b504	-0.11362651
117	0xbdd1ccf1	-0.102441676
118	0xbe716922	-0.23575261
119	0xbeb8b23c	-0.36073482
120	0xbd917958	-0.071032226
121	0xbd2d5039	-0.042312834
122	0xbf18ffed	-0.5976551
123	0xbe903825	-0.28167835
124	0xbd998b9c	-0.074973315
125	0xbe53938d	-0.20661755
126	0xbd3797c7	-0.04482248
127	0xbdc08dad	-0.094020225
128	0xbe0d7f7f	-0.13818167
129	0xbed3545f	-0.41275308
130	0xbeea182d	-0.4572157
131	0xbeddc2b4	-0.4331261
132	0xbdfee2da	-0.12445612
133	0xbe7b3d35	-0.24535067
134	0xbe93dae7	-0.28877947
135	0xbdb0b621	-0.08628488
136	0xbe9c2f60	-0.30504894
137	0xbdf29525	-0.11844853
138	0xbe446b3f	-0.19181536
139	0xbea20172	-0.31641728
140	0xbe82de73	-0.2556034
141	0xbeacb2e1	-0.33730224
142	0xbe3a345d	-0.18184038
143	0xbea8bc31	-0.3295608
144	0xbe9aa2b9	-0.30202273
145	0xbec1df27	-0.37865564
146	0xbd5d7c47	-0.0540736
147	0xbe1ca2cf	-0.15296482
148	0xbe6e7171	-0.23285462
149	0xbe8f3f26	-0.27977866
150	0xbd875e1a	-0.06609745
151	0xbe82e6a2	-0.25566584
152	0xbebf567c	-0.3737067
153	0xbdd52976	-0.10408299
154	0xbdc6f63d	-0.09714935
155	0xbe8887f1	-0.26666215
156	0xbd367f80	-0.044555187
157	0xbe2f6f8e	-0.17132398
158	0xbe15c994	-0.14627677
159	0xbe4d3e01	-0.20043184
160	0xbddbc91e	-0.107317194
161	0xbe4d6291	-0.20057131
162	0xbe919742	-0.28435713
163	0xbe2e640d	-0.17030354
164	0xbdba81f1	-0.091068156
165	0xbe20d994	-0.15708
166	0xbd8d15bf	-0.06888913
167	0xbdd3e144	-0.103457004
168	0xbe3112fb	-0.17292397
169	0xbea99849	-0.33123997
170	0xbe0a49ca	-0.13504711
171	0xbea65a1e	-0.3249063
172	0xbeb845a6	-0.35990638
173	0xbf44d82e	-0.76892364
174	0xbe20b004	-0.15692145
175	0xbeabc879	-0.33551386
176	0xbf3a2bca	-0.72723067
177	0xbde77b32	-0.113027945
178	0xbdfd87a3	-0.12379386
179	0xbece935b	-0.40346798
180	0xbe794c04	-0.24345404
181	0xbe9c6b2d	-0.3055052
182	0xbecd9da8	-0.40159345
183	0xbdb1bd96	-0.08678739
184	0xbec180a5	-0.3779346
185	0xbe7b4bb5	-0.24540599
186	0xbe82ea8f	-0.2556958
187	0xbee2d119	-0.44300154
188	0xbe588163	-0.21143107
189	0xbe59e6b2	-0.2127941
190	0xbe4ba328	-0.19886458
191	0xbe3b4a47	-0.18290053
192	0xbf01bd7a	-0.50679743
193	0xbe686b48	-0.22697175
194	0xbe1e9b09	-0.15488829
195	0xbf253d89	-0.6454702
196	0xbdd12d16	-0.102136776
197	0xbd5a17dd	-0.053245414
198	0xbe37500b	-0.17901628
199	0xbe8146ad	-0.25249234
200	0xbe677a7d	-0.2260532
201	0xbef11104	-0.47083294
202	0xbc28f394	-0.01031198
203	0xbe67500b	-0.22589128
204	0xbe9a46a4	-0.3013202
205	0xbe93db0c	-0.28878057
206	0xbefd8f44	-0.49523365
207	0xbe40c02b	-0.18823306
208	0xbeefeed0	-0.46861887
209	0xbf05b9b5	-0.5223649
210	0xbc8caed2	-0.017173205
211	0xbdf2e55c	-0.11860153
212	0xbf2913b2	-0.6604568
213	0xbeb2c463	-0.34915456
214	0xbdfc5a42	-0.12321903
215	0xbe07e306	-0.13270196
216	0xbf11bf81	-0.56932837
217	0xbe9e3be9	-0.30905083
218	0xbe9f29c8	-0.31086564
219	0xbf0af339	-0.5427738
220	0xbc32608e	-0.010887278
221	0xbc1931d9	-0.0093502635
222	0xbefa0455	-0.4883143
223	0xbe8b9030	-0.27258444
224	0xbdbd7e33	-0.09252586
225	0xbda96bb1	-0.08272494
226	0xbee8e4a3	-0.45486936
227	0xbe76e3d6	-0.2411035
228	0xbd9205f5	-0.071300425
229	0xbe2a8c59	-0.16655101
230	0xbd58008d	-0.0527349
231	0xbea7b526	-0.32755393
232	0xbe51cdd3	-0.20488672
233	0xbeac9f9e	-0.33715528
234	0xbe0fb4dc	-0.14033836
235	0xbea82d26	-0.32846946
236	0xbe483377	-0.19550882
237	0xbf08843e	-0.53326786
238	0xbe274337	-0.16334234
239	0xbe7f6d62	-0.2494407
240	0xbf438cfe	-0.7638701
241	0x3c22b541	0.00993091
242	0xbd7226d8	-0.059119076
243	0xbe92ce0d	-0.2867283
244	0xbe0c5fe7	-0.13708459
245	0xbe0bc283	-0.13648419
246	0xbe6fc99b	-0.2341675
247	0xbd2792b4	-0.04091139
248	0xbe28cec1	-0.1648512
249	0xbe9e2025	-0.308839
250	0x3da4b286	0.08041863
251	0xbede1fcc	-0.43383634
252	0xbe412c4e	-0.18864557
253	0xbe498ebf	-0.1968336
254	0xbd954e41	-0.072903164
255	0xbee73c11	-0.45163015

fc3.bias f4 [9]
0	0xbe01e08c	-0.12683314
1	0xbeb3a05c	-0.35083282
2	0x3f83a178	1.0283651
3	0xbd840e7d	-0.06448076
4	0xbeb4a466	-0.35281676
5	0x3d582870	0.05277294
6	0xbde54821	-0.11195398
7	0xbdd12d9a	-0.10213776
8	0xbf228476	-0.6348337
