models/best_nn_100.pth (torch, 294728 bytes, 6 tensors)

fc1.weight f4 [128, 500]
000000 a3 eb 5a bf 64 55 5e be e0 92 9f 3a 2f 09 2c 3d
       -0.85515803 -0.21712261 0.001217451 0.042000946
000010 b1 a0 d5 be 11 4e bd be d1 a6 4d be 0a c2 54 be
       -0.4172416 -0.36973622 -0.20083167 -0.20777145
000020 bc c9 10 bf d6 5f 3f bd 15 f3 fe 3d 6f 45 ea 3e
       -0.5655782 -0.046722256 0.12448708 0.457561
000030 05 52 10 3e 51 56 9b 3e 00 74 05 3d 9f 9b 8e 3e
       0.14093788 0.30339292 0.03258133 0.27853104
000040 93 2c 4c 3f 6e 58 f9 3e cb 09 e4 3d 38 7f ba 3e
       0.79755515 0.4870028 0.1113468 0.36425185
000050 b0 20 ae 3e bc 7b f2 3d 29 c5 d0 bd 7f 7e 60 bf
       0.34009314 0.11840007 -0.10193855 -0.8769302
000060 ae da 38 be 7c 28 9d be d6 b3 cf be 82 b2 4f bf
       -0.1805217 -0.3069495 -0.4056689 -0.81131756
000070 8e 71 2d 3e e4 12 c2 3d 50 a8 52 3e af f7 ef 3e
       0.16937849 0.09476259 0.20572019 0.46868655
000080 8f 20 1c 3f ad 66 a2 3b 3d 0b ec bd f0 b4 0d 3f
       0.6098718 0.0049560876 -0.11525581 0.55354214
000090 4c 23 fb 3e 54 25 fc 3d 86 bf 55 3e 25 2e ca be
       0.49050367 0.12311807 0.20873842 -0.3948833
0000a0 8c 72 27 bf 5e 09 d8 be 99 08 a6 be b4 c9 e8 be
       -0.6540916 -0.42194647 -0.32428434 -0.45466387
0000b0 65 88 52 bf 9c a5 9a be 81 93 8c 3c c9 29 6e be
       -0.8223937 -0.30204475 0.01716018 -0.23258127
0000c0 14 dd d7 be 24 8b 88 3d 1c ee c9 3e ba 58 4b be
       -0.42160857 0.06667164 0.39439476 -0.19858065
0000d0 43 5d d9 be 3b cc 31 be 93 5f eb be b1 f8 cd be
       -0.42453966 -0.17363064 -0.45971355 -0.402288
0000e0 ae 6f 31 be b6 83 8b bf db 5c fd 3f a4 c7 5d 3e
       -0.17327759 -1.089957 1.9793962 0.21658188
0000f0 90 9b e9 3e 0a f1 58 be 84 f8 48 3f 03 1e 37 be
       0.45626497 -0.21185699 0.78504205 -0.17882542
000100 cb 26 ac 3e fa 76 40 be 5e 78 8d 3e 29 98 00 bd
       0.33623347 -0.18795386 0.27630895 -0.03139511
000110 1d da 35 3e b5 be a5 be 4e 9e 4e be a2 c8 4e bf
       0.17758985 -0.3237206 -0.20177576 -0.8077489
000120 32 08 13 bf 52 f5 d7 be 0c 93 33 3f 21 0e 45 3f
       -0.5743438 -0.42179352 0.7014625 0.76974684
000130 04 3b 7c 3f 4d e6 8e bf 66 93 38 3e 69 a1 81 bf
       0.9852755 -1.1164032 0.18024978 -1.0127383
000140 a9 ae 1e 3f 98 12 4a bf 05 4b ad 3c 21 a0 10 bf
       0.6198526 -0.7893462 0.021153936 -0.5649434
000150 f1 4d 18 bc 53 b9 78 bf fe 0c 6d be 37 bf 5b bf
       -0.009295926 -0.9715778 -0.23149487 -0.85838646
000160 d1 88 3a bf d8 bb 57 bf c6 2a 45 bf 40 e5 99 be
       -0.72865015 -0.84271 -0.7701839 -0.30057716
000170 43 4c 2b bf ea 8c d1 3f 72 6a be bb c4 b3 e2 bd
       -0.6691324 1.6371129 -0.005811029 -0.11069444
000180 f9 ca df be 37 db 8f 3f f1 34 14 3f 4f 39 7b 3e
       -0.43709543 1.1238774 0.5789328 0.2453358
000190 21 c6 31 be 30 0e 32 3f d9 30 6b 3e 4c 51 10 3e
       -0.17360736 0.695529 0.22967853 0.14093512
0001a0 cf a1 00 3e c5 9f 4c 3d 00 4a 88 3d 7e 43 03 3e
       0.12561725 0.049957056 0.066547394 0.12818715
0001b0 65 36 82 3f 52 fa 42 3f b5 4f ac be 79 22 96 3e
       1.017285 0.7616321 -0.33654562 0.29323176
0001c0 f8 ca fd 3e 2f c3 ba 3e 3c 0d b2 be 87 aa ba 3e
       0.49568915 0.36477038 -0.34775722 0.36458227
0001d0 80 aa fe 3d 16 d7 9e 3d ca 46 97 bc 47 37 09 3f
       0.12434864 0.07755868 -0.018466372 0.5359997
0001e0 8c 96 7c 3e 7b fc 7b bd 32 5b ac 3d 36 61 27 bf
       0.24666804 -0.06152008 0.084158316 -0.6538271
0001f0 02 f5 5d 3e 74 48 b2 bd f7 48 b9 be ec 2b 61 bf
       0.21675494 -0.087052256 -0.3618848 -0.87957644
000200 b4 d5 17 3e 8c 79 a6 be 55 db 47 be 7d b1 46 be
       0.14827615 -0.32514608 -0.19517262 -0.19403644
000210 79 36 13 be 69 8b 51 be a5 a7 1d 3e 90 14 06 bf
       -0.14376248 -0.20463337 0.15395983 -0.52375126
000220 9f 23 93 3b 61 a7 64 be 29 6d bf be 47 49 91 bf
       0.0044903303 -0.22329475 -0.3738797 -1.1350487
000230 fc 56 bb 3c 05 84 ec be 5e b1 dd be fa f9 df be
       0.022868626 -0.46194473 -0.43299383 -0.43745404
000240 ec 9b 10 bf 8e 74 4e 3d d3 71 90 be 36 85 fc 3e
       -0.5648792 0.050404124 -0.2821184 0.49320382
000250 56 e3 5b 3c 2d 4d 03 be 69 ac fe be ab 67 95 3d
       0.0134209 -0.12822409 -0.49740914 0.07295164
000260 c2 85 61 3d f1 36 ce 3d 24 8e 30 bd 5f b3 a2 3d
       0.055059202 0.10069073 -0.043104306 0.079443686
000270 56 f9 0d bf 51 8e 10 be fa 58 82 3f c6 48 77 3f
       -0.5545858 -0.1411679 1.0183403 0.9659542
000280 93 77 5d be 4b fc 38 3e c1 a0 96 3e 9a 62 24 3f
       -0.21627645 0.18064992 0.2941952 0.64212954
000290 68 56 14 3f dc 04 76 bf 40 75 c1 3e 72 15 6b 3e
       0.57944345 -0.96101165 0.37784767 0.229574
0002a0 75 ab cb 3f 4d 17 0f 3f 2d ab f1 3e 93 71 90 be
       1.59117 0.5589493 0.4720091 -0.2821165
0002b0 f9 bc f7 3e 2f 8e 4a 3f 2a f0 17 3e 7a ad 9c be
       0.48386362 0.79123205 0.14837709 -0.30601102
0002c0 d8 6b 75 3f ca 23 bd 3f 4e 11 ae 3e 3a 4e f1 be
       0.9586768 1.4776547 0.33997577 -0.47129995
0002d0 3c 64 99 3e 5e f8 73 3f 02 b3 eb be 98 97 76 bd
       0.29959285 0.95300853 -0.4603501 -0.060203165
0002e0 f6 63 8f be fe 9e 82 be 65 02 1a 3e df 2f 99 3d
       -0.28005952 -0.25511926 0.15039976 0.07479834
0002f0 84 39 e9 bd d8 f4 a8 3e 90 91 2c bf bc db b2 3e
       -0.11387923 0.329993 -0.6740961 0.3493327
000300 3a c3 d5 3d 82 be a5 3f 12 aa 8c 3f dd f3 d4 bf
       0.10437627 1.2948763 1.0989401 -1.6636921
000310 bf 67 11 3f de e7 07 bf 40 a0 22 3f e3 e4 de 3f
       0.5679893 -0.53088176 0.6352577 1.7413601
000320 94 85 e8 3e 0e 24 13 bf ac 7c 94 3e 84 cc 06 40
       0.45414412 -0.5747689 0.29001367 2.1062326
000330 e7 ba 90 3f 7f fb 7b 3f 46 8c 20 3f ac f0 aa 3d
       1.1307038 0.9843063 0.6271404 0.08346686
000340 dc a3 38 bf 9f e3 98 bf 83 53 2e be 5f 3b 90 bd
       -0.7212503 -1.1944464 -0.17024045 -0.07042574
000350 a9 68 79 be 10 9d 51 be c8 ad 47 3e e5 9f 97 3a
       -0.24356331 -0.20470071 0.19499886 0.0011568038
000360 ef e8 01 3c 30 5d f2 bd d4 e8 35 3d 79 72 40 be
       0.007929071 -0.1183418 0.044411495 -0.18793668
000370 56 dd bd bd 37 75 4e 3d 04 78 4b bd 09 a2 7f 3c
       -0.09270732 0.050404754 -0.049675003 0.015602597
000380 9d 7d c5 3e 78 ee 93 3e b3 0a 0f be 4a 87 cc 3d
       0.38572398 0.28892875 -0.13968925 0.09986742
000390 45 5c c2 3d f9 89 9d 3d bb 9f 1f 3e 8b 66 71 3e
       0.09490255 0.07692332 0.15588276 0.23574273
0003a0 ef 4e 08 3f 98 f1 64 be de 93 3b 3f 41 75 a0 bd
       0.53245443 -0.22357786 0.732725 -0.078348644
0003b0 f2 b8 87 be ce 8b a9 be 88 7e 92 be f4 4d 08 3e
       -0.2650829 -0.33114475 -0.2861216 0.13310987
0003c0 6b 69 12 3e 9b 72 62 3c 30 93 da bd 89 c8 95 3e
       0.14298026 0.013821269 -0.10672605 0.2925456
0003d0 88 f3 1b 3e 90 a3 a1 be a6 2c 42 bd 5c 0b 67 bf
       0.15229619 -0.315701 -0.04740586 -0.9025171
0003e0 e7 70 82 be bb a1 71 3e b4 cb b6 be 8c c7 49 be
       -0.25476763 0.23596852 -0.35702288 -0.19705027
0003f0 d2 a5 a2 3b 24 85 8a 3d 9e b0 ac bd bf c3 50 bb
       0.004963615 0.06763676 -0.084321246 -0.0031854955

fc1.bias f4 [128]
000000 65 8a bd bc bd 37 1e be ee ad e3 ba 1f 73 db 3d
       -0.02313728 -0.1545095 -0.0017370561 0.10715317
000010 c2 79 d1 bc 18 11 d1 bc 62 c4 3d bd fe e6 b2 bb
       -0.025570754 -0.025520846 -0.046329863 -0.0054596653
000020 90 84 80 bb 7e 87 6d bd 11 78 5c bd 10 59 1b bc
       -0.0039220527 -0.057990544 -0.05382544 -0.009481683
000030 f9 1c d3 bc ca 4f b6 bc 38 62 55 bd 55 0f c2 bb
       -0.025770651 -0.022254843 -0.05209562 -0.005922238
000040 37 49 38 bd 20 87 b9 bd 04 23 21 bc 60 39 d5 bb
       -0.044991698 -0.09058976 -0.0098350085 -0.006507084
000050 a5 ce 9a bd f7 7c 16 bd 36 5c b6 bc b0 37 e2 bc
       -0.075589456 -0.03674027 -0.022260766 -0.027614444
000060 22 95 a6 3d 6c 73 48 bc 53 20 db bb e6 e4 17 bb
       0.081339136 -0.01223455 -0.006687203 -0.0023177206
000070 dc e9 00 bd 3e 78 ba bb 11 4e d8 3d 71 6c 4f bc
       -0.031473026 -0.0056906035 0.10561765 -0.012660132
000080 da 5e ec bd ee a7 2b 3e 6a 8a 68 bc b0 f5 b6 bc
       -0.11541529 0.16763279 -0.014193157 -0.02233395
000090 02 92 28 bb 21 89 94 bc a4 22 14 be 35 e8 9b bb
       -0.0025721793 -0.018131794 -0.1446634 -0.004757906
0000a0 70 65 23 bb fd b7 0f 3e 24 0a 53 bd e9 bd 97 bc
       -0.0024932288 0.1403503 -0.051523343 -0.018523173
0000b0 fc 17 90 bc c5 84 83 bd 20 3d b1 bc 48 e9 a1 bb
       -0.017589562 -0.06421808 -0.021635592 -0.0049411394
0000c0 39 d0 13 bf 1c d8 84 bd 0d 92 69 bd 66 56 06 bd
       -0.577396 -0.06486532 -0.05702405 -0.03279724
0000d0 20 b0 1a bd e9 f5 47 be f4 81 df 3d 43 7a 8d bb
       -0.037765622 -0.19527401 0.109134585 -0.0043175532
0000e0 ca 15 55 bd d5 96 d4 3d 4c 02 5b bc 8c d8 02 3e
       -0.052022733 0.103803314 -0.013367247 0.12777919
0000f0 37 77 b1 bb 54 2f eb bc 50 4c a1 bb 58 6b 33 bd
       -0.005415823 -0.028709091 -0.0049224272 -0.043803543
000100 0b 3a 96 bb 04 03 11 bd 20 b8 90 bc 60 d4 8a bb
       -0.004584556 -0.035403267 -0.017665923 -0.004236743
000110 7d 1c 00 3e ab 63 93 bd 95 22 ac bb ea 37 86 bd
       0.12510867 -0.071967445 -0.005253146 -0.065536335
000120 5d 3c 4d 3d de 64 43 bd d9 8c cb bc 7f 48 65 be
       0.050106395 -0.047703616 -0.024847435 -0.22390936
000130 9d 01 13 be 84 01 ce ba 81 1e 4d be ea da 23 bd
       -0.14356084 -0.0015717004 -0.20031168 -0.040003695
000140 fa 35 f5 bc 1b 4f be bc a5 17 7b be 92 16 11 bc
       -0.029932965 -0.02323108 -0.24520738 -0.008855479
000150 b1 61 be bc 09 d4 8e bc 10 83 cd bb 17 4b 66 bb
       -0.023239942 -0.01743509 -0.0062717274 -0.0035139972
000160 0d 8e 9e bd 4e a6 16 bd d5 9b 93 bd 1f 81 86 bc
       -0.07741938 -0.036779694 -0.07207457 -0.016418992
000170 95 85 a8 bc d4 60 4d bd 0d 5c 01 bd 91 da 10 bc
       -0.02057151 -0.05014117 -0.031581927 -0.008841173
000180 65 9c fb bd 7c 72 0a bd 94 5e 18 bd 6f 47 83 bb
       -0.12285689 -0.033800587 -0.03719957 -0.0040063183
000190 04 c9 60 3d 32 f1 31 bb 9a 41 f9 bd dc 87 c3 3d
       0.054879203 -0.002715182 -0.12170716 0.095473975
0001a0 c3 92 c6 bc 01 e5 59 bc ae 76 9d bd 80 d9 11 bb
       -0.024239903 -0.013299228 -0.07688652 -0.0022254884
0001b0 6e 0c ed 3d bd 9d bb 3d 5a 0d 17 bd 12 6f 12 bd
       0.115746364 0.091609456 -0.036877967 -0.035750456
0001c0 f1 32 c3 bd 56 66 0b bd 9c e1 9c 3d 2d 7a f6 bb
       -0.09531201 -0.034033142 0.07660219 -0.0075218887
0001d0 7e 43 27 bd 31 8c 50 be 45 61 8c be fb e5 2e bd
       -0.04083585 -0.20365979 -0.2741796 -0.042699795
0001e0 58 37 17 bb a9 5e fc bd 50 29 40 bd 2e fe 20 bc
       -0.002307376 -0.123227425 -0.0469144 -0.009826226
0001f0 3c 5f 69 bd 2f 5e 7a bb c2 89 22 bb af 0f 7e bd
       -0.05697559 -0.003820311 -0.0024801348 -0.062026676

fc2.weight f4 [64, 128]
000000 13 d1 d7 bf ef 4e cb 3d 68 8e 55 3d c0 d7 6f bd
       -1.6860679 0.09927165 0.052137762 -0.058555365
000010 2a 9b 89 ba 27 0d 1f c0 0e ea c9 bc e3 3e b8 3c
       -0.0010498513 -2.4851778 -0.024647739 0.022490924
000020 af f7 93 3d db 00 25 bf af f4 9c 3d 7a dd 01 3e
       0.07224976 -0.6445443 0.07663857 0.12682143
000030 37 61 cc 3b 95 11 c2 ba 8e 0e 0b bf f2 4c be 3e
       0.006237175 -0.0014806265 -0.54319084 0.3716808
000040 41 5d 4e bf 93 ce c8 3c 70 57 b5 be 29 ec 9e bd
       -0.80611044 0.024512565 -0.35418272 -0.07759888
000050 67 7c 61 be ba 96 5a 3d 9c 35 6f bc 2a f8 50 3d
       -0.22020112 0.0533664 -0.014600184 0.051017918
000060 c0 64 6e bd 4b b0 5a c0 03 92 68 3d 51 e0 b9 3a
       -0.05820155 -3.41701 0.056779873 0.0014181231
000070 73 d2 b4 3c ea 0c fc 3c e6 60 e6 bd a4 db 92 3d
       0.022073006 0.030767877 -0.11248951 0.071707994
000080 a9 fc f9 3d 9a d3 25 be a8 30 ed bd 4a f7 56 3d
       0.12206394 -0.16194001 -0.11581546 0.052481927
000090 2a cb c5 3d 47 38 8a 3d a6 80 36 3e 37 26 53 3e
       0.09657891 0.06749015 0.17822513 0.20620047
0000a0 76 3a a7 bc 19 2c 19 bd d4 ec c4 bc b1 17 c5 bc
       -0.020413619 -0.03739557 -0.02403871 -0.024059149
0000b0 6a 7d 30 bf 77 60 66 be 1d 50 82 bd ba 10 16 3e
       -0.68941367 -0.22497736 -0.06362937 0.14654818
0000c0 fc 8e 84 3d dd b6 a0 3e 86 77 bd bc 0c 65 78 bc
       0.064725846 0.31389514 -0.023128282 -0.01516081
0000d0 ca 14 12 bc 69 48 37 3e ff e4 39 bd 43 ed 52 bd
       -0.008916089 0.17898716 -0.045384403 -0.0514958
0000e0 e6 ff c7 3b 38 a1 0a bb 9e a5 86 3e 03 c9 e8 bd
       0.0061035035 -0.0021153223 0.2629823 -0.11366465
0000f0 74 f1 8f 3d b2 53 03 bf 1d 0d 89 3d 4a 62 77 bd
       0.070284754 -0.51299584 0.06691954 -0.06039647
000100 e3 15 31 3e cb 23 26 bd 00 40 b5 be 9b 49 de 3c
       0.17293505 -0.04056148 -0.3540039 0.027134707
000110 b2 1e 00 bd cc fe b3 3e b1 6e 77 3d c4 19 b0 3d
       -0.031279273 0.35155332 0.060408298 0.085986644
000120 5a bd 87 bd 74 47 c6 be 81 0a 7d 3d 54 50 03 3e
       -0.06627913 -0.3872639 0.061777595 0.12823611
000130 bd f0 1c 3e 96 c1 bd 3d f8 ac 31 bf de bd 72 3c
       0.1532621 0.09265439 -0.69404554 0.014815776
000140 c9 b8 4c bd 1b 5e a1 bc dc d0 56 be 35 66 b5 3d
       -0.049980912 -0.019698193 -0.20978111 0.08857385
000150 10 97 a4 bd e0 ff a8 3d 26 39 3d bd 9c 6b 8a bb
       -0.080366254 0.08251929 -0.04619708 -0.004224254
000160 f5 a4 2c be ab d7 52 bc 50 ba 4e bd 30 ca af be
       -0.16859801 -0.012868802 -0.05047065 -0.34333944
000170 10 42 8b bd e5 60 5d 3d 98 38 87 bd 77 b0 0c 3e
       -0.0679971 0.054047484 -0.06602591 0.13739191
000180 b1 3c 06 be 70 c9 1e bf 32 7a 2f bc 0a 8c 64 3e
       -0.1310909 -0.6202612 -0.010710286 0.22319046
000190 31 fe 90 3d 21 dc ec 3d 92 eb 60 bf 95 f2 27 bd
       0.07079733 0.11565424 -0.8785945 -0.04100283
0001a0 75 e9 5a bf cc 37 40 bf ae 76 a0 bd 38 53 c2 3d
       -0.8551248 -0.7508514 -0.07835136 0.09488529
0001b0 a9 57 ec bd cc 51 75 bd f9 9f de bc ef 2f 6b 3d
       -0.11540157 -0.05989246 -0.02717589 0.05741876
0001c0 e1 c8 79 3e 9f 6f 16 bd 6f f3 0a be f5 df 21 be
       0.24393035 -0.036727544 -0.13569425 -0.15808089
0001d0 5f 4f 83 bd dc 1d 65 3d d1 8e 4d 3e e2 0f b6 3b
       -0.06411623 0.05593668 0.20074011 0.0055560926
0001e0 e9 fb 33 3d 38 37 88 3d fb 5c 16 3d a0 b5 40 be
       0.043941412 0.06651157 0.036709767 -0.18819284
0001f0 e5 37 f3 be 6f c8 0b 3d 94 ce df 3d cb e6 65 3c
       -0.47503582 0.034126695 0.109280735 0.014032076
000200 36 99 31 bf 7a f4 84 bf 73 2c 29 be 18 aa 94 bf
       -0.69374406 -1.0387108 -0.16520862 -1.1614408
000210 5d c1 c0 bd a7 b3 8c 3e c2 26 86 bc e3 95 bd 3a
       -0.09411881 0.27480814 -0.016375903 0.0014464225
000220 d7 21 7a bd 22 e5 cc bd 68 4c 65 3d 85 03 d1 bf
       -0.06106743 -0.10004641 0.05598107 -1.6329199
000230 93 bd a0 3d a5 b7 97 bd 11 f3 68 3d a9 3f 38 be
       0.078486584 -0.07408074 0.05687243 -0.17993034
000240 76 d1 a0 3e a9 dc ae 3e 1e 38 96 bd c4 38 f6 bc
       0.31409806 0.34152725 -0.07334922 -0.030056365
000250 e3 8f 0b bd 63 5d 38 3d 2d c3 ae 3d 03 31 a0 bb
       -0.034072768 0.045010936 0.085333206 -0.004888655
000260 1e 95 32 bf d2 03 15 bd 24 98 12 bf 2f ce 32 bf
       -0.69758785 -0.036380596 -0.572634 -0.6984586
000270 ba a7 0f bd 96 96 88 3c 94 d3 3b bf d1 89 89 bd
       -0.035072066 0.016673367 -0.7336972 -0.067157395
000280 e5 a1 d7 be 2b c5 83 bf 15 4d 19 be 3f eb 86 bd
       -0.42115703 -1.0294546 -0.1497081 -0.065878384
000290 3a 8d 0b be 18 00 6d 3d 50 ee 70 3e 0c 00 8d be
       -0.13628092 0.057861418 0.23528409 -0.27539098
0002a0 e8 9c 2a bc e7 1a 26 bf fa 35 5a bd 7c fd 40 3d
       -0.010413386 -0.648848 -0.053274132 0.04711674
0002b0 78 8a 15 bf d4 3b 1f c0 cf 70 88 3d c6 1c de be
       -0.5841441 -2.4880266 0.066621415 -0.43381327
0002c0 28 34 61 bf 85 35 35 be 53 7e b8 3d c8 dc 6c 3d
       -0.8797021 -0.17696197 0.090084694 0.05782774
0002d0 36 ef b0 3d d1 b1 af bf b1 07 22 bf ea e2 2f bf
       0.08639376 -1.372614 -0.63292986 -0.6870562
0002e0 5c f1 95 bd 47 01 77 bf f1 96 a1 ba cf 5b 79 bf
       -0.07321426 -0.96486324 -0.0012328309 -0.97405714
0002f0 a5 33 aa bc 98 d5 b7 bd b6 d0 6f be ac 5c be bc
       -0.02077658 -0.08976287 -0.2341946 -0.023237549
000300 45 ad 98 3b eb 87 04 bc b3 33 85 be fe 08 ad bd
       0.004659327 -0.008089046 -0.26016006 -0.08448981
000310 b9 64 33 bf 8c d7 fe be 86 f4 db be fe 69 0b be
       -0.70075566 -0.49773824 -0.42959994 -0.13614652
000320 bf 0c 79 bf fa 06 cc bd e0 62 c3 bb 9a 43 81 3d
       -0.97285074 -0.09962268 -0.0059627146 0.06311722
000330 c8 57 44 bf 0c 3c a0 be 77 92 94 3c d9 9f 0f 3d
       -0.76696444 -0.31295812 0.018136246 0.035064552
000340 99 e0 e3 bc 5f 2c b4 3d d5 0d af be c4 9d 81 3d
       -0.027817057 0.087975256 -0.3419024 0.063289195
000350 71 8c ac bd 5b da 85 bd 0d 64 53 3d b0 11 89 bf
       -0.084252246 -0.065357886 0.051609088 -1.0708523
000360 f6 f7 11 3d 60 e8 30 3d 81 83 b7 bd d3 98 77 3e
       0.035636865 0.04319036 -0.08960629 0.24179392
000370 4d 9d b2 3b b3 52 c7 bd a7 8d 7e bd 18 32 73 be
       0.0054508806 -0.097325705 -0.06214681 -0.23749578
000380 24 3b a5 3e 1e a9 06 3d cf 55 8b 3d 9e 1a 83 be
       0.32271683 0.032876126 0.06803476 -0.25606245
000390 ad 5a 7c bf ed 4f 69 be 75 5d 28 bf 61 54 89 bf
       -0.9857586 -0.22784396 -0.65767604 -1.0728875
0003a0 2c 6a b4 3e 3e 38 e5 3d a2 1c 0c bf 6e ae f1 be
       0.35237253 0.11192368 -0.5473119 -0.47203392
0003b0 71 a7 3d bf 86 b5 2f bf 3d 61 98 3d 74 84 8c 3d
       -0.7408362 -0.6863636 0.07440422 0.06861201
0003c0 7f a0 53 bb 95 e5 9f 3d 8c 0a 7d bf 7a 46 ca bf
       -0.0032291708 0.07807461 -0.9884422 -1.5802758
0003d0 da c4 2d 3d 4b cd f1 be 66 03 48 3d d6 b6 47 3d
       0.04242406 -0.4722694 0.048831366 0.04875835
0003e0 43 e8 bc bd 89 d8 5b bd da 65 0f bc 2f 0c 84 3d
       -0.09223988 -0.0536733 -0.008752311 0.06447636
0003f0 6a ce 1a bf cb ff 70 be 9d b6 4f be bd 70 ce be
       -0.6047121 -0.23535077 -0.20284505 -0.40320387

fc2.bias f4 [64]
000000 f9 d2 b5 3e 27 ee d9 3e 55 4d 8d be 3b 40 f6 3e
       0.35512522 0.42564508 -0.27598062 0.4809588
000010 88 bc b9 3e ed 68 52 3f e3 39 42 3f 94 cb 20 3f
       0.3627665 0.82191354 0.7586958 0.62810636
000020 c3 2b 1c 3f 61 36 bd be d2 50 f5 3d 5e 48 8a bf
       0.61004275 -0.3695555 0.11978306 -1.0803335
000030 be ef 36 3e b3 17 04 3f b3 df 41 3d 47 2f 53 3f
       0.17864892 0.5159866 0.047332477 0.82494015
000040 39 ad 8b 3e a0 57 00 3f 3d 08 c2 3d d9 68 86 bb
       0.27280596 0.50133705 0.094742276 -0.0041018543
000050 11 ba 12 3f 34 c4 60 3e 67 80 60 3e 72 ed 89 be
       0.57315165 0.21949846 0.21923982 -0.2693897
000060 86 4d 8a bd 7f a8 cf 3e db e2 a6 3e b2 2e 22 3f
       -0.06753068 0.4055824 0.32594952 0.633525
000070 69 c9 d0 be b5 d6 03 3f 27 2f ba 3e 4d 44 8a 3e
       -0.40778664 0.5149949 0.363641 0.27005234
000080 51 36 d7 3e 63 8a 19 3f 61 f8 25 3f 98 8f 99 3e
       0.42033628 0.59976786 0.6483212 0.29992366
000090 7f a5 9c be c7 36 0b 3f a4 30 28 3f fd a2 b3 3e
       -0.30595013 0.5438046 0.6569922 0.35085288
0000a0 67 5e 69 be bd 82 ed 3e cc e9 ab 3c e9 3a 46 3f
       -0.22789918 0.46388808 0.020985506 0.7743364
0000b0 4a 40 99 3d b5 58 e3 be ea a6 f7 bc 2e 92 42 be
       0.07482965 -0.44403616 -0.030230958 -0.19001076
0000c0 f9 e5 06 3e 60 bc b3 3e 6c 65 f3 be 29 71 71 3e
       0.13173665 0.35104656 -0.47538316 0.23578323
0000d0 ea 8d 3a 3f 7b 5b 7b 3e d3 4f ac 3e b0 77 c4 3e
       0.72872794 0.24546616 0.3365465 0.38372564
0000e0 93 51 b3 3c 91 77 99 3e 5a 42 4b 3f fb 21 1b 3f
       0.021889484 0.29974034 0.7939812 0.60598725
0000f0 ce a6 a8 3d 84 4a 2b 3f 2b 80 9a bc 39 83 1b bf
       0.082349405 0.66910577 -0.018859943 -0.60747105

fc3.weight f4 [9, 64]
000000 ee 59 01 3e f3 79 72 3d 01 9f f9 3c f0 8d b1 3d
       0.12631962 0.05919833 0.030471327 0.086696506
000010 5f 6a 40 3b 44 33 c1 3d 7e 2e 13 3d c9 9c b7 3e
       0.0029360277 0.09433606 0.03593301 0.35861805
000020 a7 5c 83 3d b5 13 57 be c6 5c 0f bf 8e 50 ae be
       0.064141564 -0.21003611 -0.56000936 -0.34045833
000030 d7 57 5e 3d 45 0e 14 3e fc ca 96 3c 6f bf c7 3d
       0.05428299 0.14458568 0.018407337 0.0975331
000040 04 c9 a2 3d 03 f7 e9 3d 90 b9 32 bf 83 b9 e6 be
       0.07948497 0.11424067 -0.69814396 -0.4506341
000050 80 fc ed 3d f8 2c 02 bf e8 cc 8f bd b5 8d a9 3d
       0.11620426 -0.50849867 -0.07021505 0.082789816
000060 1e ba cd be 2c f6 0c bd 3c 07 68 3c f1 72 a6 3d
       -0.4018106 -0.034414455 0.014161881 0.08127392
000070 7d 04 0c be c5 85 06 3d 03 9b ea bc e8 1f bf be
       -0.13673587 0.032842416 -0.028638368 -0.3732903
000080 ce dc 9a bb a5 20 60 bd db bb 3b 3e 48 e7 97 3b
       -0.004726029 -0.054718632 0.1833338 0.004635725
000090 54 20 27 bf e7 4e 13 3e 92 bf 13 3e 09 43 50 3d
       -0.65283704 0.14385568 0.14428547 0.05084518
0000a0 d7 a0 6f bc 60 f7 99 3c 9b ef dd bc f8 9d d5 bd
       -0.01462575 0.018794715 -0.027091792 -0.10430521
0000b0 bd 41 09 be 6c 37 ed be b6 25 46 be 7a 63 57 be
       -0.13403983 -0.46331346 -0.19350323 -0.21034041
0000c0 9b f7 a7 be 23 db 94 bd ba 23 06 bf 4e 0d ed bd
       -0.32806095 -0.072683595 -0.52398264 -0.11574803
0000d0 26 20 0f be 5e 56 77 ba 6d 11 40 bd 7c 3c c5 bd
       -0.13977107 -0.0009435172 -0.04689162 -0.09630677
0000e0 20 94 02 bd 81 aa 92 be bb fc be 3e f6 9f 41 be
       -0.031879544 -0.2864571 0.37302193 -0.18908677
0000f0 cb 0a 02 bf 13 0f d0 3d 5e 03 99 be 46 56 98 3d
       -0.5079772 0.10159125 -0.2988538 0.0743833
000100 e9 8e ec 3d 9c cc a4 bd 08 df ac be af d1 ff bd
       0.115506954 -0.08046839 -0.3376391 -0.12491166
000110 67 65 cd 3c b3 5e 60 be 20 a7 9c be f3 19 2d be
       0.025072766 -0.21911125 -0.30596256 -0.1690443
000120 41 af 8a 3d 23 48 0c 3e b3 20 a0 bc 51 2e 06 3e
       0.06771708 0.13699393 -0.019546842 0.13103606
000130 c4 9d bb 3c a7 94 ad 3d 32 43 e5 bd 0a b9 9a be
       0.022902377 0.08475619 -0.11194457 -0.302193
000140 7b f6 bc 3d 9f 30 6f bd a0 f2 28 be 03 d0 77 be
       0.092267 -0.058395978 -0.16498804 -0.24200444
000150 f8 21 ed be 01 e3 94 bd 66 3a 30 bd d2 77 3f be
       -0.4631498 -0.0726986 -0.043024443 -0.18698052
000160 0c 57 38 be a4 69 7c bb 5a a4 27 3d 13 d1 7f 3d
       -0.18001956 -0.0038515115 0.040928222 0.062455248
000170 77 e7 e3 3d 00 34 f0 3c 2c 17 25 bc bd e2 d8 3d
       0.11128133 0.02932167 -0.010076325 0.10590122
000180 ca c0 61 bd 70 d3 de 3d 7b 09 76 bc 0a c5 5e be
       -0.0551155 0.10880172 -0.015016909 -0.21754852
000190 af 0d 6c bd b6 a5 31 3e d1 fa 6f 3e 9e 96 aa 3d
       -0.057630237 0.1734837 0.23435523 0.08329509
0001a0 04 9a b7 bd c8 53 43 be a5 80 b3 be 95 cd 94 bc
       -0.08964923 -0.19074929 -0.35059085 -0.018164435
0001b0 4a bf 56 3d 21 bf 1d bd 6e 11 34 be bb 08 a6 3d
       0.05242852 -0.038512353 -0.17584774 0.08107134
0001c0 9a 40 96 be fb 9b e5 be f5 38 2b bd c9 fd f5 3b
       -0.29346162 -0.44845566 -0.041802365 0.00750706
0001d0 c0 76 36 3d bb 39 b1 3a 07 85 7a bd 27 39 96 be
       0.044546843 0.0013521233 -0.06116202 -0.2934048
0001e0 d6 5f 10 3d b3 1c e8 3d 32 4f 66 be 3c fc 67 be
       0.035247646 0.11333599 -0.22491148 -0.22654814
0001f0 51 02 83 3c 03 8c 2a bc e2 5a b2 3d 5e 8e ea 3d
       0.015992315 -0.010409358 0.08708741 0.11452936
000200 37 ee a5 3d b7 7d 8c be e1 9e d8 bb b7 03 a2 be
       0.081020765 -0.27439663 -0.0066107367 -0.3164346
000210 8b f3 16 3d a6 31 8b bd f1 31 15 be 85 ee 3b 3e
       0.036853354 -0.06796579 -0.14569832 0.18352707
000220 a8 27 85 be 7b d1 3b 3d 6b 6c ba bd 11 53 42 bd
       -0.26006818 0.045854073 -0.0910271 -0.0474425
000230 e9 09 7d be 55 2c 13 be 35 8b ef 3d 26 0f 39 be
       -0.24710812 -0.1437238 0.116964735 -0.18072185
000240 83 ca 9a be 57 20 4e be ae 49 9e 3d 4a 15 3d bd
       -0.3023263 -0.20129524 0.07728897 -0.04616288
000250 06 54 e5 3c f8 af f7 bd de 93 76 3d 27 2d 28 bd
       0.027994167 -0.1209411 0.06019961 -0.041058686
000260 8e 9d 89 3d 2f c7 b9 3c 6e d6 d9 3b 92 c4 70 be
       0.06719504 0.022677986 0.0066478765 -0.23512486
000270 3a b2 81 3d 88 c9 5f be e7 d1 25 3e 49 63 cf 3b
       0.06332822 -0.21854222 0.16193353 0.0063289744
000280 3c 03 60 3d ea fe bc bd d7 20 8b bd a7 2d 52 3d
       0.054690585 -0.092283085 -0.06793373 0.05131307
000290 a6 07 88 bc 5d 7f 26 3d 3d 52 f6 3d b5 8a 0f 3e
       -0.01660521 0.040648807 0.120274045 0.14017756
0002a0 5a ca f3 3d 94 19 41 be ed 0f 98 3d 64 7a 07 be
       0.1190383 -0.18857414 0.074249126 -0.13230282
0002b0 db 34 9c be 22 f4 c2 be 94 e6 39 3d 72 61 60 be
       -0.30509076 -0.38076884 0.045385912 -0.21912172
0002c0 1c 23 ce be c0 a9 40 bd eb 31 ca 3d e7 20 c5 be
       -0.4026116 -0.047036886 0.09872802 -0.38501665
0002d0 37 1b 2d be 95 13 57 be 49 16 84 be b7 d2 9b 3d
       -0.16904913 -0.21003564 -0.25798252 0.0760855
0002e0 4b 6e 56 be 00 61 1f be fb 85 2b 3e 89 1b 81 be
       -0.20940511 -0.15564346 0.16750328 -0.2521632
0002f0 51 3e 07 be 18 ec 0e be 69 2f 9a 3c f7 b0 05 3e
       -0.13207366 -0.1395725 0.018821435 0.13055788
000300 01 dd ba be 40 ba ac 3c 03 62 39 3d aa 98 18 bf
       -0.36496738 0.021084905 0.045259487 -0.59607947
000310 10 72 55 3c 25 d7 37 3e b7 c2 97 3c ab 23 85 bd
       0.013027683 0.17953165 0.018525464 -0.06500944
000320 26 d4 26 be 9d 4c e7 be 6f 62 a7 3d 20 8e 87 3d
       -0.16291866 -0.4517564 0.081730716 0.06618905
000330 74 fa d0 bd 86 21 81 bd e1 8a 97 be 82 cd 9b bd
       -0.1020402 -0.06305222 -0.29598144 -0.07607557
000340 72 3b 10 bf 08 bf c6 be 1a 4e d9 3d e2 e3 43 3c
       -0.56340706 -0.3881762 0.106106 0.011956187
000350 95 7e 84 be 64 22 d1 bd 8f a3 d3 3b f5 6e ea 3d
       -0.25877824 -0.102116376 0.0064587067 0.114469446
000360 0d 44 e2 bd 4e 6b 59 be 1d 1e 8b bd d8 62 f2 be
       -0.11048136 -0.2123234 -0.06792853 -0.47341037
000370 a9 d1 c4 3d fe 99 5e 3d 52 10 99 be 9a 76 df bd
       0.09610302 0.054346077 -0.29895264 -0.10911293
000380 55 e2 9a 3d 55 2c 89 3d 78 ce df bc 51 a6 53 3d
       0.07562701 0.06697909 -0.027320132 0.051672284
000390 65 8c cb 3c c0 0b 0a bd fb 8e 5d 3d b5 12 03 bd
       0.024847219 -0.033702612 0.054091435 -0.032000262
0003a0 3c 76 59 bd 0c a5 d3 be 41 98 d6 3d 4a 85 23 be
       -0.053091273 -0.41336858 0.10478259 -0.15968814
0003b0 50 31 14 bd 14 bd 6f be 52 c4 e6 3c be 4b f2 bd
       -0.03617984 -0.23411971 0.028169785 -0.11830853
0003c0 33 ee ed be a7 9b 01 3e f1 1a 02 3e 78 ec d4 bd
       -0.46470794 0.12657033 0.1270559 -0.10396665
0003d0 89 c0 59 bd ce 50 16 bd c2 f1 6c be c2 40 f4 3d
       -0.05316213 -0.036698155 -0.23139098 0.11926414
0003e0 21 10 11 bd 67 2f 07 be ec 40 f9 3e cd 0b 76 be
       -0.035415772 -0.13201676 0.48682344 -0.24027939
0003f0 d0 3d 03 bd fb 42 25 3a 89 2a ce 3d 4b 11 3c be
       -0.03204137 0.00063042314 0.10066707 -0.18365972

fc3.bias f4 [9]
000000 8e 7c d8 bd 22 c6 86 be 60 72 73 3f 7c da f3 bd
       -0.10570632 -0.26323038 0.950964 -0.11906907
000010 aa 3e 27 be 03 6c 93 3c 3c 11 09 be 25 a0 0a be
       -0.16332498 0.01799584 -0.1338548 -0.13537653
000020 e7 ee ec be
       -0.46276018
